…
I1212 01:28:30.606189 27538 net.cpp:275] The NetState phase (0) differed from the phase (1) specified by a rule in layer bsaor
I1212 01:28:30.606228 27538 net.cpp:275] The NetState phase (0) differed from the phase (1) specified by a rule in layer accuracy
I1212 01:28:30.606374 27538 net.cpp:39] Initializing net from parameters: 
name: "BSaOR"
layers {
  top: "data"
  top: "label"
  name: "bsaor"
  type: DATA
  data_param {
    source: "models/bsaor/bsaor_train_lmdb"
    batch_size: 50
    backend: LMDB
  }
  include {
    phase: TRAIN
  }
  transform_param {
    mirror: true
    crop_size: 95
    mean_file: "models/bsaor/bsaor_train_lmdb.binaryproto"
  }
}
layers {
  bottom: "data"
  top: "conv1"
  name: "conv1"
  type: CONVOLUTION
  blobs_lr: 1
  blobs_lr: 2
  weight_decay: 1
  weight_decay: 0
  convolution_param {
    num_output: 50
    kernel_size: 11
    stride: 4
    weight_filler {
      type: "xavier"
    }
    bias_filler {
      type: "constant"
      value: 0
    }
  }
}
layers {
  bottom: "conv1"
  top: "conv1"
  name: "relu1"
  type: RELU
}
layers {
  bottom: "conv1"
  top: "pool1"
  name: "pool1"
  type: POOLING
  pooling_param {
    pool: MAX
    kernel_size: 3
    stride: 2
  }
}
layers {
  bottom: "pool1"
  top: "norm1"
  name: "norm1"
  type: LRN
  lrn_param {
    local_size: 5
    alpha: 0.0001
    beta: 0.75
  }
}
layers {
  bottom: "norm1"
  top: "conv2"
  name: "conv2"
  type: CONVOLUTION
  blobs_lr: 1
  blobs_lr: 2
  weight_decay: 1
  weight_decay: 0
  convolution_param {
    num_output: 256
    pad: 2
    kernel_size: 5
    group: 2
    weight_filler {
      type: "gaussian"
      std: 0.01
    }
    bias_filler {
      type: "constant"
      value: 1
    }
  }
}
layers {
  bottom: "conv2"
  top: "conv2"
  name: "relu5"
  type: RELU
}
layers {
  bottom: "conv2"
  top: "pool5"
  name: "pool5"
  type: POOLING
  pooling_param {
    pool: MAX
    kernel_size: 3
    stride: 2
  }
}
layers {
  bottom: "pool5"
  top: "fc6"
  name: "fc6"
  type: INNER_PRODUCT
  blobs_lr: 1
  blobs_lr: 2
  weight_decay: 1
  weight_decay: 0
  inner_product_param {
    num_output: 4096
    weight_filler {
      type: "gaussian"
      std: 0.005
    }
    bias_filler {
      type: "constant"
      value: 1
    }
  }
}
layers {
  bottom: "fc6"
  top: "fc6"
  name: "relu6"
  type: RELU
}
layers {
  bottom: "fc6"
  top: "fc6"
  name: "drop6"
  type: DROPOUT
  dropout_param {
    dropout_ratio: 0.5
  }
}
layers {
  bottom: "fc6"
  top: "fc7"
  name: "fc7"
  type: INNER_PRODUCT
  blobs_lr: 1
  blobs_lr: 2
  weight_decay: 1
  weight_decay: 0
  inner_product_param {
    num_output: 4096
    weight_filler {
      type: "gaussian"
      std: 0.005
    }
    bias_filler {
      type: "constant"
      value: 1
    }
  }
}
layers {
  bottom: "fc7"
  top: "fc7"
  name: "relu7"
  type: RELU
}
layers {
  bottom: "fc7"
  top: "fc7"
  name: "drop7"
  type: DROPOUT
  dropout_param {
    dropout_ratio: 0.5
  }
}
layers {
  bottom: "fc7"
  top: "fc8"
  name: "fc8"
  type: INNER_PRODUCT
  blobs_lr: 1
  blobs_lr: 2
  weight_decay: 1
  weight_decay: 0
  inner_product_param {
    num_output: 8
    weight_filler {
      type: "xavier"
    }
    bias_filler {
      type: "constant"
      value: 0
    }
  }
}
layers {
  bottom: "fc8"
  bottom: "label"
  top: "loss"
  name: "loss"
  type: SOFTMAX_LOSS
}
state {
  phase: TRAIN
}
I1212 01:28:30.606514 27538 net.cpp:56] Memory required for data: 0
I1212 01:28:30.606575 27538 layer_factory.hpp:78] Creating layer bsaor
I1212 01:28:30.606605 27538 data_transformer.cpp:24] Loading mean file frommodels/bsaor/bsaor_train_lmdb.binaryproto
I1212 01:28:30.608037 27538 net.cpp:67] Creating Layer bsaor
I1212 01:28:30.608062 27538 net.cpp:356] bsaor -> data
I1212 01:28:30.608094 27538 net.cpp:356] bsaor -> label
I1212 01:28:30.608119 27538 net.cpp:96] Setting up bsaor
I1212 01:28:30.608136 27538 data_layer.cpp:32] Opening dataset models/bsaor/bsaor_train_lmdb
I1212 01:28:30.608149 27538 lmdb_dataset.cpp:15] LMDB: Open models/bsaor/bsaor_train_lmdb
I1212 01:28:30.608273 27538 data_layer.cpp:71] output data size: 50,3,95,95
I1212 01:28:30.609925 27538 base_data_layer.cpp:41] Initializing prefetch
I1212 01:28:30.610010 27538 base_data_layer.cpp:43] Prefetch initialized.
I1212 01:28:30.610031 27538 net.cpp:103] Top shape: 50 3 95 95 (1353750)
I1212 01:28:30.610044 27538 net.cpp:103] Top shape: 50 1 1 1 (50)
I1212 01:28:30.610052 27538 net.cpp:113] Memory required for data: 5415200
I1212 01:28:30.610064 27538 layer_factory.hpp:78] Creating layer conv1
I1212 01:28:30.610090 27538 net.cpp:67] Creating Layer conv1
I1212 01:28:30.610105 27538 net.cpp:394] conv1 <- data
I1212 01:28:30.610136 27538 net.cpp:356] conv1 -> conv1
I1212 01:28:30.610158 27538 net.cpp:96] Setting up conv1
I1212 01:28:30.611567 27538 net.cpp:103] Top shape: 50 50 22 22 (1210000)
I1212 01:28:30.611585 27538 net.cpp:113] Memory required for data: 10255200
I1212 01:28:30.611618 27538 layer_factory.hpp:78] Creating layer relu1
I1212 01:28:30.611635 27538 net.cpp:67] Creating Layer relu1
I1212 01:28:30.611647 27538 net.cpp:394] relu1 <- conv1
I1212 01:28:30.611670 27538 net.cpp:345] relu1 -> conv1 (in-place)
I1212 01:28:30.611688 27538 net.cpp:96] Setting up relu1
I1212 01:28:30.611699 27538 net.cpp:103] Top shape: 50 50 22 22 (1210000)
I1212 01:28:30.611707 27538 net.cpp:113] Memory required for data: 15095200
I1212 01:28:30.611716 27538 layer_factory.hpp:78] Creating layer pool1
I1212 01:28:30.611734 27538 net.cpp:67] Creating Layer pool1
I1212 01:28:30.611744 27538 net.cpp:394] pool1 <- conv1
I1212 01:28:30.611760 27538 net.cpp:356] pool1 -> pool1
I1212 01:28:30.611776 27538 net.cpp:96] Setting up pool1
I1212 01:28:30.611798 27538 net.cpp:103] Top shape: 50 50 11 11 (302500)
I1212 01:28:30.611810 27538 net.cpp:113] Memory required for data: 16305200
I1212 01:28:30.611819 27538 layer_factory.hpp:78] Creating layer norm1
I1212 01:28:30.611836 27538 net.cpp:67] Creating Layer norm1
I1212 01:28:30.611850 27538 net.cpp:394] norm1 <- pool1
I1212 01:28:30.611865 27538 net.cpp:356] norm1 -> norm1
I1212 01:28:30.611884 27538 net.cpp:96] Setting up norm1
I1212 01:28:30.611901 27538 net.cpp:103] Top shape: 50 50 11 11 (302500)
I1212 01:28:30.611910 27538 net.cpp:113] Memory required for data: 17515200
I1212 01:28:30.611919 27538 layer_factory.hpp:78] Creating layer conv2
I1212 01:28:30.611935 27538 net.cpp:67] Creating Layer conv2
I1212 01:28:30.611948 27538 net.cpp:394] conv2 <- norm1
I1212 01:28:30.611965 27538 net.cpp:356] conv2 -> conv2
I1212 01:28:30.611984 27538 net.cpp:96] Setting up conv2
I1212 01:28:30.626637 27538 net.cpp:103] Top shape: 50 256 11 11 (1548800)
I1212 01:28:30.626674 27538 net.cpp:113] Memory required for data: 23710400
I1212 01:28:30.626701 27538 layer_factory.hpp:78] Creating layer relu5
I1212 01:28:30.626719 27538 net.cpp:67] Creating Layer relu5
I1212 01:28:30.626734 27538 net.cpp:394] relu5 <- conv2
I1212 01:28:30.626751 27538 net.cpp:345] relu5 -> conv2 (in-place)
I1212 01:28:30.626765 27538 net.cpp:96] Setting up relu5
I1212 01:28:30.626773 27538 net.cpp:103] Top shape: 50 256 11 11 (1548800)
I1212 01:28:30.626780 27538 net.cpp:113] Memory required for data: 29905600
I1212 01:28:30.626787 27538 layer_factory.hpp:78] Creating layer pool5
I1212 01:28:30.626801 27538 net.cpp:67] Creating Layer pool5
I1212 01:28:30.626811 27538 net.cpp:394] pool5 <- conv2
I1212 01:28:30.626823 27538 net.cpp:356] pool5 -> pool5
I1212 01:28:30.626837 27538 net.cpp:96] Setting up pool5
I1212 01:28:30.626848 27538 net.cpp:103] Top shape: 50 256 5 5 (320000)
I1212 01:28:30.626855 27538 net.cpp:113] Memory required for data: 31185600
I1212 01:28:30.626868 27538 layer_factory.hpp:78] Creating layer fc6
I1212 01:28:30.626919 27538 net.cpp:67] Creating Layer fc6
I1212 01:28:30.626929 27538 net.cpp:394] fc6 <- pool5
I1212 01:28:30.626942 27538 net.cpp:356] fc6 -> fc6
I1212 01:28:30.626955 27538 net.cpp:96] Setting up fc6
I1212 01:28:30.630087 27543 data_layer.cpp:131] Prefetch batch: 16 ms.
I1212 01:28:30.630239 27543 data_layer.cpp:132]      Read time: 1.028 ms.
I1212 01:28:30.630296 27543 data_layer.cpp:133] Transform time: 14.809 ms.
I1212 01:28:32.728960 27538 net.cpp:103] Top shape: 50 4096 1 1 (204800)
I1212 01:28:32.728994 27538 net.cpp:113] Memory required for data: 32004800
I1212 01:28:32.729033 27538 layer_factory.hpp:78] Creating layer relu6
I1212 01:28:32.729051 27538 net.cpp:67] Creating Layer relu6
I1212 01:28:32.729063 27538 net.cpp:394] relu6 <- fc6
I1212 01:28:32.729079 27538 net.cpp:345] relu6 -> fc6 (in-place)
I1212 01:28:32.729091 27538 net.cpp:96] Setting up relu6
I1212 01:28:32.729100 27538 net.cpp:103] Top shape: 50 4096 1 1 (204800)
I1212 01:28:32.729107 27538 net.cpp:113] Memory required for data: 32824000
I1212 01:28:32.729115 27538 layer_factory.hpp:78] Creating layer drop6
I1212 01:28:32.729128 27538 net.cpp:67] Creating Layer drop6
I1212 01:28:32.729137 27538 net.cpp:394] drop6 <- fc6
I1212 01:28:32.729149 27538 net.cpp:345] drop6 -> fc6 (in-place)
I1212 01:28:32.729161 27538 net.cpp:96] Setting up drop6
I1212 01:28:32.729172 27538 net.cpp:103] Top shape: 50 4096 1 1 (204800)
I1212 01:28:32.729179 27538 net.cpp:113] Memory required for data: 33643200
I1212 01:28:32.729187 27538 layer_factory.hpp:78] Creating layer fc7
I1212 01:28:32.729200 27538 net.cpp:67] Creating Layer fc7
I1212 01:28:32.729212 27538 net.cpp:394] fc7 <- fc6
I1212 01:28:32.729228 27538 net.cpp:356] fc7 -> fc7
I1212 01:28:32.729248 27538 net.cpp:96] Setting up fc7
I1212 01:28:34.077112 27538 net.cpp:103] Top shape: 50 4096 1 1 (204800)
I1212 01:28:34.077148 27538 net.cpp:113] Memory required for data: 34462400
I1212 01:28:34.077167 27538 layer_factory.hpp:78] Creating layer relu7
I1212 01:28:34.077185 27538 net.cpp:67] Creating Layer relu7
I1212 01:28:34.077196 27538 net.cpp:394] relu7 <- fc7
I1212 01:28:34.077214 27538 net.cpp:345] relu7 -> fc7 (in-place)
I1212 01:28:34.077226 27538 net.cpp:96] Setting up relu7
I1212 01:28:34.077235 27538 net.cpp:103] Top shape: 50 4096 1 1 (204800)
I1212 01:28:34.077242 27538 net.cpp:113] Memory required for data: 35281600
I1212 01:28:34.077250 27538 layer_factory.hpp:78] Creating layer drop7
I1212 01:28:34.077261 27538 net.cpp:67] Creating Layer drop7
I1212 01:28:34.077270 27538 net.cpp:394] drop7 <- fc7
I1212 01:28:34.077283 27538 net.cpp:345] drop7 -> fc7 (in-place)
I1212 01:28:34.077296 27538 net.cpp:96] Setting up drop7
I1212 01:28:34.077304 27538 net.cpp:103] Top shape: 50 4096 1 1 (204800)
I1212 01:28:34.077312 27538 net.cpp:113] Memory required for data: 36100800
I1212 01:28:34.077318 27538 layer_factory.hpp:78] Creating layer fc8
I1212 01:28:34.077332 27538 net.cpp:67] Creating Layer fc8
I1212 01:28:34.077339 27538 net.cpp:394] fc8 <- fc7
I1212 01:28:34.077353 27538 net.cpp:356] fc8 -> fc8
I1212 01:28:34.077368 27538 net.cpp:96] Setting up fc8
I1212 01:28:34.079072 27538 net.cpp:103] Top shape: 50 8 1 1 (400)
I1212 01:28:34.079085 27538 net.cpp:113] Memory required for data: 36102400
I1212 01:28:34.079102 27538 layer_factory.hpp:78] Creating layer loss
I1212 01:28:34.079118 27538 net.cpp:67] Creating Layer loss
I1212 01:28:34.079128 27538 net.cpp:394] loss <- fc8
I1212 01:28:34.079139 27538 net.cpp:394] loss <- label
I1212 01:28:34.079150 27538 net.cpp:356] loss -> loss
I1212 01:28:34.079164 27538 net.cpp:96] Setting up loss
I1212 01:28:34.079180 27538 net.cpp:103] Top shape: 1 1 1 1 (1)
I1212 01:28:34.079187 27538 net.cpp:109]     with loss weight 1
I1212 01:28:34.079201 27538 net.cpp:113] Memory required for data: 36102404
I1212 01:28:34.079210 27538 net.cpp:170] loss needs backward computation.
I1212 01:28:34.079218 27538 net.cpp:170] fc8 needs backward computation.
I1212 01:28:34.079233 27538 net.cpp:170] drop7 needs backward computation.
I1212 01:28:34.079262 27538 net.cpp:170] relu7 needs backward computation.
…
I1212 01:28:34.079845 27538 solver.cpp:151] Creating test net (#0) specified by net file: models/bsaor/bsaor_train_test.prototxt
I1212 01:28:34.079895 27538 net.cpp:275] The NetState phase (1) differed from the phase (0) specified by a rule in layer bsaor
I1212 01:28:34.080031 27538 net.cpp:39] Initializing net from parameters: 
name: "BSaOR"
layers {
  top: "data"
  top: "label"
  name: "bsaor"
  type: DATA
  data_param {
    source: "models/bsaor/bsaor_test_lmdb"
    batch_size: 10
    backend: LMDB
  }
  include {
    phase: TEST
  }
  transform_param {
    mirror: false
    crop_size: 95
    mean_file: "models/bsaor/bsaor_train_lmdb.binaryproto"
  }
}
layers {
  bottom: "data"
  top: "conv1"
  name: "conv1"
  type: CONVOLUTION
  blobs_lr: 1
  blobs_lr: 2
  weight_decay: 1
  weight_decay: 0
  convolution_param {
    num_output: 50
    kernel_size: 11
    stride: 4
    weight_filler {
      type: "xavier"
    }
    bias_filler {
      type: "constant"
      value: 0
    }
  }
}
layers {
  bottom: "conv1"
  top: "conv1"
  name: "relu1"
  type: RELU
}
layers {
  bottom: "conv1"
  top: "pool1"
  name: "pool1"
  type: POOLING
  pooling_param {
    pool: MAX
    kernel_size: 3
    stride: 2
  }
}
layers {
  bottom: "pool1"
  top: "norm1"
  name: "norm1"
  type: LRN
  lrn_param {
    local_size: 5
    alpha: 0.0001
    beta: 0.75
  }
}
layers {
  bottom: "norm1"
  top: "conv2"
  name: "conv2"
  type: CONVOLUTION
  blobs_lr: 1
  blobs_lr: 2
  weight_decay: 1
  weight_decay: 0
  convolution_param {
    num_output: 256
    pad: 2
    kernel_size: 5
    group: 2
    weight_filler {
      type: "gaussian"
      std: 0.01
    }
    bias_filler {
      type: "constant"
      value: 1
    }
  }
}
layers {
  bottom: "conv2"
  top: "conv2"
  name: "relu5"
  type: RELU
}
layers {
  bottom: "conv2"
  top: "pool5"
  name: "pool5"
  type: POOLING
  pooling_param {
    pool: MAX
    kernel_size: 3
    stride: 2
  }
}
layers {
  bottom: "pool5"
  top: "fc6"
  name: "fc6"
  type: INNER_PRODUCT
  blobs_lr: 1
  blobs_lr: 2
  weight_decay: 1
  weight_decay: 0
  inner_product_param {
    num_output: 4096
    weight_filler {
      type: "gaussian"
      std: 0.005
    }
    bias_filler {
      type: "constant"
      value: 1
    }
  }
}
layers {
  bottom: "fc6"
  top: "fc6"
  name: "relu6"
  type: RELU
}
layers {
  bottom: "fc6"
  top: "fc6"
  name: "drop6"
  type: DROPOUT
  dropout_param {
    dropout_ratio: 0.5
  }
}
layers {
  bottom: "fc6"
  top: "fc7"
  name: "fc7"
  type: INNER_PRODUCT
  blobs_lr: 1
  blobs_lr: 2
  weight_decay: 1
  weight_decay: 0
  inner_product_param {
    num_output: 4096
    weight_filler {
      type: "gaussian"
      std: 0.005
    }
    bias_filler {
      type: "constant"
      value: 1
    }
  }
}
layers {
  bottom: "fc7"
  top: "fc7"
  name: "relu7"
  type: RELU
}
layers {
  bottom: "fc7"
  top: "fc7"
  name: "drop7"
  type: DROPOUT
  dropout_param {
    dropout_ratio: 0.5
  }
}
layers {
  bottom: "fc7"
  top: "fc8"
  name: "fc8"
  type: INNER_PRODUCT
  blobs_lr: 1
  blobs_lr: 2
  weight_decay: 1
  weight_decay: 0
  inner_product_param {
    num_output: 8
    weight_filler {
      type: "xavier"
    }
    bias_filler {
      type: "constant"
      value: 0
    }
  }
}
layers {
  bottom: "fc8"
  bottom: "label"
  top: "accuracy"
  name: "accuracy"
  type: ACCURACY
  include {
    phase: TEST
  }
}
layers {
  bottom: "fc8"
  bottom: "label"
  top: "loss"
  name: "loss"
  type: SOFTMAX_LOSS
}
state {
  phase: TEST
}
I1212 01:28:34.080173 27538 net.cpp:56] Memory required for data: 0
I1212 01:28:34.080206 27538 layer_factory.hpp:78] Creating layer bsaor
I1212 01:28:34.080221 27538 data_transformer.cpp:24] Loading mean file frommodels/bsaor/bsaor_train_lmdb.binaryproto
I1212 01:28:34.081269 27538 net.cpp:67] Creating Layer bsaor
I1212 01:28:34.081285 27538 net.cpp:356] bsaor -> data
I1212 01:28:34.081305 27538 net.cpp:356] bsaor -> label
I1212 01:28:34.081321 27538 net.cpp:96] Setting up bsaor
I1212 01:28:34.081331 27538 data_layer.cpp:32] Opening dataset models/bsaor/bsaor_test_lmdb
I1212 01:28:34.081337 27538 lmdb_dataset.cpp:15] LMDB: Open models/bsaor/bsaor_test_lmdb
I1212 01:28:34.081409 27538 data_layer.cpp:71] output data size: 10,3,95,95
I1212 01:28:34.081683 27538 base_data_layer.cpp:41] Initializing prefetch
I1212 01:28:34.081730 27538 base_data_layer.cpp:43] Prefetch initialized.
I1212 01:28:34.081754 27538 net.cpp:103] Top shape: 10 3 95 95 (270750)
I1212 01:28:34.081764 27538 net.cpp:103] Top shape: 10 1 1 1 (10)
I1212 01:28:34.081771 27538 net.cpp:113] Memory required for data: 1083040
I1212 01:28:34.081780 27538 layer_factory.hpp:78] Creating layer label_bsaor_1_split
I1212 01:28:34.081792 27538 net.cpp:67] Creating Layer label_bsaor_1_split
I1212 01:28:34.081804 27538 net.cpp:394] label_bsaor_1_split <- label
I1212 01:28:34.081817 27538 net.cpp:356] label_bsaor_1_split -> label_bsaor_1_split_0
I1212 01:28:34.081835 27538 net.cpp:356] label_bsaor_1_split -> label_bsaor_1_split_1
I1212 01:28:34.081847 27538 net.cpp:96] Setting up label_bsaor_1_split
I1212 01:28:34.081858 27538 net.cpp:103] Top shape: 10 1 1 1 (10)
I1212 01:28:34.081867 27538 net.cpp:103] Top shape: 10 1 1 1 (10)
I1212 01:28:34.081874 27538 net.cpp:113] Memory required for data: 1083120
I1212 01:28:34.081881 27538 layer_factory.hpp:78] Creating layer conv1
I1212 01:28:34.081894 27538 net.cpp:67] Creating Layer conv1
I1212 01:28:34.081903 27538 net.cpp:394] conv1 <- data
I1212 01:28:34.081918 27538 net.cpp:356] conv1 -> conv1
I1212 01:28:34.081933 27538 net.cpp:96] Setting up conv1
I1212 01:28:34.083132 27538 net.cpp:103] Top shape: 10 50 22 22 (242000)
I1212 01:28:34.083148 27538 net.cpp:113] Memory required for data: 2051120
I1212 01:28:34.083164 27538 layer_factory.hpp:78] Creating layer relu1
I1212 01:28:34.083176 27538 net.cpp:67] Creating Layer relu1
I1212 01:28:34.083185 27538 net.cpp:394] relu1 <- conv1
I1212 01:28:34.083199 27538 net.cpp:345] relu1 -> conv1 (in-place)
I1212 01:28:34.083210 27538 net.cpp:96] Setting up relu1
I1212 01:28:34.083220 27538 net.cpp:103] Top shape: 10 50 22 22 (242000)
I1212 01:28:34.083226 27538 net.cpp:113] Memory required for data: 3019120
I1212 01:28:34.083233 27538 layer_factory.hpp:78] Creating layer pool1
I1212 01:28:34.083246 27538 net.cpp:67] Creating Layer pool1
I1212 01:28:34.083255 27538 net.cpp:394] pool1 <- conv1
I1212 01:28:34.083268 27538 net.cpp:356] pool1 -> pool1
I1212 01:28:34.083281 27538 net.cpp:96] Setting up pool1
I1212 01:28:34.083292 27538 net.cpp:103] Top shape: 10 50 11 11 (60500)
I1212 01:28:34.083299 27538 net.cpp:113] Memory required for data: 3261120
I1212 01:28:34.083307 27538 layer_factory.hpp:78] Creating layer norm1
I1212 01:28:34.083317 27538 net.cpp:67] Creating Layer norm1
I1212 01:28:34.083325 27538 net.cpp:394] norm1 <- pool1
I1212 01:28:34.083338 27538 net.cpp:356] norm1 -> norm1
I1212 01:28:34.083353 27538 net.cpp:96] Setting up norm1
I1212 01:28:34.083376 27538 net.cpp:103] Top shape: 10 50 11 11 (60500)
I1212 01:28:34.083385 27538 net.cpp:113] Memory required for data: 3503120
I1212 01:28:34.083392 27538 layer_factory.hpp:78] Creating layer conv2
I1212 01:28:34.083405 27538 net.cpp:67] Creating Layer conv2
I1212 01:28:34.083415 27538 net.cpp:394] conv2 <- norm1
I1212 01:28:34.083428 27538 net.cpp:356] conv2 -> conv2
I1212 01:28:34.083442 27538 net.cpp:96] Setting up conv2
I1212 01:28:34.084203 27577 data_layer.cpp:131] Prefetch batch: 2 ms.
I1212 01:28:34.084230 27577 data_layer.cpp:132]      Read time: 0.119 ms.
I1212 01:28:34.084240 27577 data_layer.cpp:133] Transform time: 2.257 ms.
I1212 01:28:34.096129 27538 net.cpp:103] Top shape: 10 256 11 11 (309760)
I1212 01:28:34.096144 27538 net.cpp:113] Memory required for data: 4742160
I1212 01:28:34.096160 27538 layer_factory.hpp:78] Creating layer relu5
I1212 01:28:34.096173 27538 net.cpp:67] Creating Layer relu5
I1212 01:28:34.096181 27538 net.cpp:394] relu5 <- conv2
I1212 01:28:34.096194 27538 net.cpp:345] relu5 -> conv2 (in-place)
I1212 01:28:34.096207 27538 net.cpp:96] Setting up relu5
I1212 01:28:34.096216 27538 net.cpp:103] Top shape: 10 256 11 11 (309760)
I1212 01:28:34.096223 27538 net.cpp:113] Memory required for data: 5981200
I1212 01:28:34.096230 27538 layer_factory.hpp:78] Creating layer pool5
I1212 01:28:34.096242 27538 net.cpp:67] Creating Layer pool5
I1212 01:28:34.096252 27538 net.cpp:394] pool5 <- conv2
I1212 01:28:34.096266 27538 net.cpp:356] pool5 -> pool5
I1212 01:28:34.096279 27538 net.cpp:96] Setting up pool5
I1212 01:28:34.096292 27538 net.cpp:103] Top shape: 10 256 5 5 (64000)
I1212 01:28:34.096298 27538 net.cpp:113] Memory required for data: 6237200
I1212 01:28:34.096305 27538 layer_factory.hpp:78] Creating layer fc6
I1212 01:28:34.096318 27538 net.cpp:67] Creating Layer fc6
I1212 01:28:34.096325 27538 net.cpp:394] fc6 <- pool5
I1212 01:28:34.096339 27538 net.cpp:356] fc6 -> fc6
I1212 01:28:34.096351 27538 net.cpp:96] Setting up fc6
I1212 01:28:36.189863 27538 net.cpp:103] Top shape: 10 4096 1 1 (40960)
I1212 01:28:36.189905 27538 net.cpp:113] Memory required for data: 6401040
I1212 01:28:36.189934 27538 layer_factory.hpp:78] Creating layer relu6
I1212 01:28:36.189952 27538 net.cpp:67] Creating Layer relu6
I1212 01:28:36.189965 27538 net.cpp:394] relu6 <- fc6
I1212 01:28:36.189982 27538 net.cpp:345] relu6 -> fc6 (in-place)
I1212 01:28:36.189996 27538 net.cpp:96] Setting up relu6
I1212 01:28:36.190006 27538 net.cpp:103] Top shape: 10 4096 1 1 (40960)
I1212 01:28:36.190012 27538 net.cpp:113] Memory required for data: 6564880
I1212 01:28:36.190021 27538 layer_factory.hpp:78] Creating layer drop6
I1212 01:28:36.190032 27538 net.cpp:67] Creating Layer drop6
I1212 01:28:36.190042 27538 net.cpp:394] drop6 <- fc6
I1212 01:28:36.190055 27538 net.cpp:345] drop6 -> fc6 (in-place)
I1212 01:28:36.190068 27538 net.cpp:96] Setting up drop6
I1212 01:28:36.190076 27538 net.cpp:103] Top shape: 10 4096 1 1 (40960)
I1212 01:28:36.190084 27538 net.cpp:113] Memory required for data: 6728720
I1212 01:28:36.190091 27538 layer_factory.hpp:78] Creating layer fc7
I1212 01:28:36.190104 27538 net.cpp:67] Creating Layer fc7
I1212 01:28:36.190114 27538 net.cpp:394] fc7 <- fc6
I1212 01:28:36.190130 27538 net.cpp:356] fc7 -> fc7
I1212 01:28:36.190145 27538 net.cpp:96] Setting up fc7
I1212 01:28:37.532384 27538 net.cpp:103] Top shape: 10 4096 1 1 (40960)
I1212 01:28:37.532420 27538 net.cpp:113] Memory required for data: 6892560
I1212 01:28:37.532439 27538 layer_factory.hpp:78] Creating layer relu7
I1212 01:28:37.532457 27538 net.cpp:67] Creating Layer relu7
I1212 01:28:37.532467 27538 net.cpp:394] relu7 <- fc7
I1212 01:28:37.532485 27538 net.cpp:345] relu7 -> fc7 (in-place)
I1212 01:28:37.532497 27538 net.cpp:96] Setting up relu7
I1212 01:28:37.532506 27538 net.cpp:103] Top shape: 10 4096 1 1 (40960)
I1212 01:28:37.532513 27538 net.cpp:113] Memory required for data: 7056400
I1212 01:28:37.532521 27538 layer_factory.hpp:78] Creating layer drop7
I1212 01:28:37.532541 27538 net.cpp:67] Creating Layer drop7
I1212 01:28:37.532572 27538 net.cpp:394] drop7 <- fc7
I1212 01:28:37.532587 27538 net.cpp:345] drop7 -> fc7 (in-place)
I1212 01:28:37.532598 27538 net.cpp:96] Setting up drop7
I1212 01:28:37.532608 27538 net.cpp:103] Top shape: 10 4096 1 1 (40960)
I1212 01:28:37.532615 27538 net.cpp:113] Memory required for data: 7220240
I1212 01:28:37.532623 27538 layer_factory.hpp:78] Creating layer fc8
I1212 01:28:37.532637 27538 net.cpp:67] Creating Layer fc8
I1212 01:28:37.532647 27538 net.cpp:394] fc8 <- fc7
I1212 01:28:37.532661 27538 net.cpp:356] fc8 -> fc8
I1212 01:28:37.532677 27538 net.cpp:96] Setting up fc8
I1212 01:28:37.534386 27538 net.cpp:103] Top shape: 10 8 1 1 (80)
I1212 01:28:37.534399 27538 net.cpp:113] Memory required for data: 7220560
I1212 01:28:37.534415 27538 layer_factory.hpp:78] Creating layer fc8_fc8_0_split
I1212 01:28:37.534435 27538 net.cpp:67] Creating Layer fc8_fc8_0_split
I1212 01:28:37.534445 27538 net.cpp:394] fc8_fc8_0_split <- fc8
I1212 01:28:37.534457 27538 net.cpp:356] fc8_fc8_0_split -> fc8_fc8_0_split_0
I1212 01:28:37.534472 27538 net.cpp:356] fc8_fc8_0_split -> fc8_fc8_0_split_1
I1212 01:28:37.534484 27538 net.cpp:96] Setting up fc8_fc8_0_split
I1212 01:28:37.534497 27538 net.cpp:103] Top shape: 10 8 1 1 (80)
I1212 01:28:37.534503 27538 net.cpp:103] Top shape: 10 8 1 1 (80)
I1212 01:28:37.534512 27538 net.cpp:113] Memory required for data: 7221200
I1212 01:28:37.534518 27538 layer_factory.hpp:78] Creating layer accuracy
I1212 01:28:37.534529 27538 net.cpp:67] Creating Layer accuracy
I1212 01:28:37.534538 27538 net.cpp:394] accuracy <- fc8_fc8_0_split_0
I1212 01:28:37.534548 27538 net.cpp:394] accuracy <- label_bsaor_1_split_0
I1212 01:28:37.534560 27538 net.cpp:356] accuracy -> accuracy
I1212 01:28:37.534574 27538 net.cpp:96] Setting up accuracy
I1212 01:28:37.534582 27538 net.cpp:103] Top shape: 1 1 1 1 (1)
I1212 01:28:37.534590 27538 net.cpp:113] Memory required for data: 7221204
I1212 01:28:37.534597 27538 layer_factory.hpp:78] Creating layer loss
I1212 01:28:37.534610 27538 net.cpp:67] Creating Layer loss
I1212 01:28:37.534618 27538 net.cpp:394] loss <- fc8_fc8_0_split_1
I1212 01:28:37.534629 27538 net.cpp:394] loss <- label_bsaor_1_split_1
I1212 01:28:37.534641 27538 net.cpp:356] loss -> loss
I1212 01:28:37.534652 27538 net.cpp:96] Setting up loss
I1212 01:28:37.534667 27538 net.cpp:103] Top shape: 1 1 1 1 (1)
I1212 01:28:37.534675 27538 net.cpp:109]     with loss weight 1
I1212 01:28:37.534690 27538 net.cpp:113] Memory required for data: 7221208
I1212 01:28:37.534698 27538 net.cpp:170] loss needs backward computation.
I1212 01:28:37.534705 27538 net.cpp:172] accuracy does not need backward computation.
I1212 01:28:37.534713 27538 net.cpp:170] fc8_fc8_0_split needs backward computation.
I1212 01:28:37.534720 27538 net.cpp:170] fc8 needs backward computation.
…
